model.ckpt (torch, 121086 bytes, 14 tensors)

layer1.0.weight f4 [16, 1, 5, 5]
000000 63 56 83 bd 3a 2e 5f bd d1 a3 0c be fc 68 18 3e
       -0.06412961 -0.054487444 -0.13734366 0.14883798
000010 6f de 6f 3d 3a 58 4a 3e 7f 13 c1 3c 1e 20 8d be
       0.05856174 0.19760218 0.023568867 -0.27563566
000020 08 f5 59 be b9 5f 33 3e 46 dd df 3d 9a 42 ba 3d
       -0.21284878 0.17516984 0.109308764 0.090947345
000030 59 a7 f9 bd 58 bf b5 3d d6 55 9c bd d8 ec 9f bd
       -0.12190122 0.088743865 -0.076335594 -0.07808846
000040 e2 b3 3e 3d 01 de 57 bc 6c cd f0 3d e3 96 96 bc
       0.04655827 -0.013175488 0.11757931 -0.018382495
000050 66 8e 2c bd ec 23 1e 3e 35 a6 99 bc 84 bc 91 bc
       -0.04212799 0.1544339 -0.018756012 -0.017790087
000060 2d 49 e9 bd f8 0a 7e bd 5f e0 c9 3d 76 1b c2 3d
       -0.1139091 -0.06202218 0.098572485 0.09477894
000070 88 bc ac bd 66 1c 31 3e 0c 65 d3 3d ce ed 30 3e
       -0.08434397 0.1729599 0.103220075 0.17278215
000080 02 48 cb 3c ad 16 df bd d1 da 06 3e 9c de 1d 3d
       0.02481461 -0.10892997 0.1316941 0.038542375
000090 59 83 a6 bd db 89 05 3c da 4d 93 bb 2e 23 35 bd
       -0.08130521 0.008150543 -0.0044953646 -0.044223003
0000a0 eb d5 54 be d9 aa 45 3e ac 69 58 3e 5c b2 84 bd
       -0.20784728 0.19303454 0.2113406 -0.06479332
0000b0 35 ab 15 3e 1c 4a b0 be 9c 8f 0d be 2b 35 01 bd
       0.14616092 -0.3443154 -0.13824314 -0.031544846
0000c0 39 a0 a1 3d fe 12 08 3e c0 a2 33 3d 21 59 ca 3d
       0.07891888 0.13288495 0.043856382 0.09880281
0000d0 4c a7 20 be db cc a3 3b 73 5a cf 3d 1b 92 57 3e
       -0.15688819 0.004998786 0.10124674 0.21051829
0000e0 70 13 69 be f6 c4 98 bd cd cb 00 3d 28 05 2b bd
       -0.22761321 -0.07459442 0.03144436 -0.041752964
0000f0 99 89 1e 3e 92 ae 81 be ea f8 12 be bb f2 8c 3d
       0.15482177 -0.253285 -0.14352766 0.06882235
000100 dd fd 17 3e 8b 0f 8a 3d e5 9f 68 be 9e a2 70 bd
       0.14842935 0.06741246 -0.22717245 -0.058748834
000110 a3 60 06 3e f3 56 e2 bd 8b 94 38 3d b7 b1 1f be
       0.13122801 -0.110517405 0.045063537 -0.15595137
000120 3f 4d 6e bd 3b 00 14 3e ed 5c ba 3c 21 30 e5 bc
       -0.058179136 0.14453213 0.022749389 -0.027977051
000130 39 47 ab 3d 5c a5 b6 bd 75 63 00 3d 85 85 be bc
       0.08363194 -0.089182585 0.03134485 -0.023257026
000140 34 0a 8e 3d 1a 52 ca 3d 5c 1a 4a 3e 4b 96 07 3e
       0.0693554 0.09878941 0.19736618 0.13240926
000150 ea 78 1e 3d 18 4c 30 3e ea 73 20 bd 5c 9b f6 3d
       0.03868953 0.17216527 -0.039173044 0.12041351
000160 7b b6 83 3d 1e 10 1a 3e 46 47 6a be 2c 27 9b bd
       0.0643129 0.1504521 -0.22878751 -0.07575831
000170 56 3c 5e be 53 f0 5e be 54 07 ce 3b 33 93 d2 bd
       -0.21702704 -0.21771364 0.0062874947 -0.10281982
000180 c2 30 2f be 89 19 9e bc ad 87 db bc 36 fb d7 bd
       -0.17108443 -0.019299285 -0.026798094 -0.105459616
000190 aa a6 21 3e 46 cf 5b 3e 99 e9 ea 3d de 10 b7 bd
       0.15786234 0.21465787 0.114703365 -0.08938764
0001a0 19 7a 22 be ef 51 a3 bd 7e b9 04 be 1f 4f ef bc
       -0.15866889 -0.07974612 -0.12961385 -0.029212533
0001b0 f2 69 8f bd ff b5 3d be bd 2a a9 3c 0d 33 e4 bd
       -0.07002629 -0.18526457 0.020650262 -0.1114255
0001c0 27 fb 93 be 17 5f 46 be 35 f7 d5 3d 7d 2f 3d bd
       -0.28902552 -0.19372211 0.104475416 -0.046187866
0001d0 39 35 31 be 84 59 14 3d 51 bd 82 3d 72 60 1e 3e
       -0.17305459 0.03621818 0.063837655 0.15466478
0001e0 12 4e 1c be 76 c9 45 3e 97 15 63 3d 37 bb 31 3e
       -0.15264156 0.19315132 0.05544051 0.17356573
0001f0 d1 43 a6 3c 08 29 88 be bc 49 55 be b1 c3 30 be
       0.02029601 -0.26593804 -0.20828909 -0.1726215
000200 e0 4f 5f be 60 09 f6 bd 4b c4 05 3e 7f 2d 4b 3e
       -0.21807814 -0.12013507 0.13063161 0.19841574
000210 bd 3a 61 3d b6 61 1c be 63 b8 11 3e 60 f4 cd 3d
       0.054987658 -0.15271649 0.14230494 0.100563765
000220 b3 f2 9b bd cb 78 db bd 22 d1 82 bd cc 54 3b 3d
       -0.076146506 -0.10716399 -0.06387545 0.045735165
000230 7e 1a 93 bd e9 4a 17 be d0 64 23 3d 3d 29 83 3d
       -0.07182787 -0.1477467 0.039891064 0.0640435
000240 e0 a4 ca bd cb 4a f1 bd 58 c8 a9 bc 9c 4a e9 bc
       -0.09894729 -0.11781844 -0.020725414 -0.02847796
000250 08 6b f6 3d 00 77 27 3e 81 cd b2 3d 40 d1 25 bd
       0.12032133 0.16353989 0.08730603 -0.04048276
000260 4a e8 b7 3d 77 9f 0c 3d bc 4f 17 bd 2e 93 2e 3a
       0.089798525 0.034331765 -0.036941275 0.0006659505
000270 44 e2 38 3e c3 19 39 be cf 5d 1e bc 24 d7 a4 be
       0.18055063 -0.18076234 -0.00966592 -0.3219539
000280 42 29 b7 3d 49 25 0c bb 86 2c 03 3e 92 ae 4a 3c
       0.08943416 -0.0021384528 0.12809953 0.012370722
000290 fc bc a4 be 17 e6 be 3d 06 f5 e2 3c 9e 82 88 bd
       -0.32175434 0.0932123 0.027704727 -0.06665538
0002a0 72 b8 4d 3e df 68 14 be 5f e9 af bd 5c b3 0c 3e
       0.20089892 -0.1449313 -0.08589434 0.13740295
0002b0 8f 36 5d bd 36 33 17 3e bc b5 6b 3d 29 20 9a bd
       -0.05400711 0.14765629 0.057546362 -0.07525665
0002c0 9a 63 16 bd 64 84 8b bd 49 f3 78 3c 6e d4 69 3e
       -0.03671608 -0.06812361 0.015194722 0.22834942
0002d0 17 b3 48 be 96 a5 6f be f3 8e e6 bd 8c 0f 3c 3c
       -0.19599567 -0.2340301 -0.11257734 0.011478316
0002e0 e7 c0 8c 3e 77 8d 96 be 34 f5 bc 3d 3d cd e8 3d
       0.27490923 -0.29404804 0.09226456 0.11367271
0002f0 f9 f6 4d 3e 1e c3 89 3b 3c f6 c4 bd 7b 2a 18 bd
       0.20113744 0.004204168 -0.09617278 -0.037149888
000300 b2 88 b4 bb 7b 1b a9 bd ab 2b 11 3d df 89 a6 3d
       -0.0055094594 -0.082571946 0.035442036 0.081317656
000310 66 21 a0 bd 99 34 6a 3d ad 21 bc 3d b2 a3 9d bd
       -0.0781887 0.057179067 0.09186111 -0.07697238
000320 70 11 f3 bd 5b ad ea 3d c7 8b e6 bd e9 cf 38 3e
       -0.1186856 0.11458846 -0.11257129 0.18048061
000330 e7 e1 87 3e b6 36 a4 3d 48 10 82 3d 45 0b 5c 3e
       0.26539537 0.08018248 0.06350762 0.21488674
000340 c6 fa a8 bd bb 2e aa bd aa 82 e0 3d fc 5a 36 3d
       -0.08250956 -0.083096944 0.10962422 0.044520363
000350 20 55 8e 3d 72 4b a8 bc c4 86 f9 bd 4b b2 0a 3e
       0.0694983 -0.020543788 -0.12183908 0.13544576
000360 d6 54 ad bd e8 10 30 be 79 c2 10 3c d3 0b f9 bd
       -0.08463447 -0.17193949 0.008835428 -0.121604584
000370 73 14 a4 bd af 88 78 3d 23 2d b1 bd 5f d6 0c 3e
       -0.08011713 0.060677227 -0.08651187 0.13753651
000380 37 39 12 be b3 76 c2 3d e0 77 05 3e a0 cb 38 3e
       -0.14279638 0.09495296 0.1303401 0.18046427
000390 bf a9 b0 3d 10 58 ba 3d 41 a2 1d 3d 74 17 c0 bd
       0.086261265 0.09098828 0.038484816 -0.09379473
0003a0 48 b8 12 be ab e7 83 bd 67 7f 53 bd 44 92 a5 bc
       -0.1432811 -0.064406715 -0.051635172 -0.020211346
0003b0 33 d3 94 3d 75 af 42 3e af 90 2a 3e 31 75 47 bd
       0.072668456 0.19012244 0.16656755 -0.048695747
0003c0 f8 e2 c5 3c 28 8b 3b be 7c 8c d4 bd 4e 94 1e 3e
       0.024156079 -0.18314803 -0.10378358 0.15486261
0003d0 b0 56 db 3d e3 83 fb 3c 64 c3 12 be e5 93 7b be
       0.10709894 0.030702537 -0.14332348 -0.24568136
0003e0 7c 7e 37 be 2e 43 3e 3d 9f d4 be bd 30 cd 1d 3e
       -0.17919344 0.046450786 -0.09317898 0.15410304
0003f0 b7 31 e3 bc 71 a1 2c 3e 84 70 29 3e 2b df 0e be
       -0.027733667 0.1685846 0.16546828 -0.1395232

layer1.0.bias f4 [16]
000000 a9 8d 6a ba 76 75 06 3e d1 61 b5 3d cc 8d d5 3d
       -0.00089475006 0.13130745 0.088565476 0.10427436
000010 37 6e 4b bd 94 bd c6 3d 18 1c bd 3d f2 bd b5 bd
       -0.049665656 0.09704128 0.09233874 -0.0887412
000020 78 57 93 bd af da 04 3e 7c 8d 83 3d 9a ed 79 bd
       -0.07194418 0.12974046 0.064234704 -0.06101761
000030 be 3c 47 3d a2 91 16 be c4 43 bc 3d 1d 74 0e be
       0.048641913 -0.14703992 0.09192613 -0.13911481

layer1.1.weight f4 [16]
000000 06 f9 6c 3f 1a c6 43 3f ca 43 85 3f 44 9c 87 3f
       0.9256748 0.76474154 1.0411313 1.0594563
000010 7b d5 90 3f 17 4c 8e 3f 15 19 62 3f 79 ec 7b 3f
       1.1315149 1.1116971 0.8831952 0.98407704
000020 9e 5a 38 3f 8b 4c 54 3f a6 1f 96 3f 6e 60 87 3f
       0.7201327 0.82929295 1.1728408 1.0576303
000030 9b f0 75 3f c3 6f 77 3f aa 88 81 3f 02 2d 8b 3f
       0.9607026 0.9665491 1.0119832 1.087311

layer1.1.bias f4 [16]
000000 9e 38 6c be e8 bf b9 be 30 9e 40 be 70 95 0b bd
       -0.23068473 -0.36279225 -0.18810344 -0.03407806
000010 38 8f 05 bd 54 aa f6 bd 95 10 99 be 20 2d 39 be
       -0.032607287 -0.12044206 -0.29895464 -0.1808362
000020 0a ec 87 be db c8 a0 be 1b f1 b3 bd 3d d3 1b be
       -0.2654727 -0.3140324 -0.087862216 -0.152173
000030 91 c6 3d bd 83 66 f1 bd 3e d0 20 be 45 e9 15 be
       -0.046331946 -0.11787131 -0.15704438 -0.14639767

layer1.1.running_mean f4 [16]
000000 c0 c8 10 bc de 8e 42 3e 88 1a 6e 3d 2e d9 b3 3d
       -0.008836925 0.18999812 0.05813077 0.08781658
000010 1c 1a d1 bd f9 fe 51 bc 71 1a c4 3d 0c 26 eb bd
       -0.10210058 -0.012817138 0.09575356 -0.11481866
000020 ce 3e 07 bd ac e0 1c 3e 8a 20 25 bd c6 6b 84 bd
       -0.03301888 0.1532008 -0.040314235 -0.06465869
000030 e6 df 79 3c 0c 27 72 be 17 a7 5e 3a 24 7b 85 be
       0.015251135 -0.23647708 0.0008493526 -0.2607051

layer1.1.running_var f4 [16]
000000 9f 5a 2f 3c 6d 61 12 3d 84 23 0c 3d 0b 95 32 3d
       0.010702758 0.035737444 0.034213558 0.04359917
000010 1b 70 68 3d 13 a0 6b 3d 33 f4 0b 3d 89 1d 8d 3d
       0.056747537 0.057525706 0.034168433 0.06890399
000020 30 65 01 3d f4 50 d6 3c d7 41 a0 3d 1c 1d e6 3c
       0.03159064 0.026161648 0.07825058 0.028090052
000030 03 6a 20 3c 02 99 ad 3d 31 74 ab 3d 9b db 89 3d
       0.0097909 0.084764495 0.08371771 0.067313395

layer2.0.weight f4 [32, 16, 5, 5]
000000 87 5c 94 bc e6 a4 e7 3c 1d 43 71 bd 64 dd 2b bd
       -0.018110527 0.028276872 -0.058901895 -0.04195918
000010 0e 90 c3 bd c5 36 41 3d 07 5b 8f bc bd 79 08 bc
       -0.095489606 0.047171373 -0.01749946 -0.008329806
000020 12 86 ba bc c6 3f a8 bd cd 1b 09 bd 85 d5 0c 3c
       -0.022769008 -0.08215289 -0.03347378 0.008595829
000030 11 81 89 3c 0a a2 0f bd bb 48 0d 3b 66 b0 00 bd
       0.016785176 -0.035066642 0.0021558243 -0.031418227
000040 9a 9c db bc 91 75 2c 3c ee 2c 97 3d aa 3d 13 3b
       -0.026808072 0.010526077 0.073816165 0.0022467175
000050 16 80 4b 3c 2c 36 22 3a d6 b1 ce bb ab 36 9d 3d
       0.012420675 0.0006187882 -0.006307821 0.07676443
000060 61 9d 2f 3d d7 fc 03 bd 28 d8 aa ba ee c4 e8 3b
       0.042874698 -0.03222355 -0.001303439 0.007103554
000070 0f cc d3 bc bf ee 77 3d 5c 85 2b bd 0c 59 e2 bb
       -0.025854139 0.06053042 -0.04187523 -0.006907588
000080 75 ed fc b8 ac ba b0 39 21 c0 cf bc db 4d d8 3c
       -0.00012060526 0.00033708417 -0.025360169 0.026404312
000090 9d f1 66 3c 4a 8d 15 3d 8f be 38 bc 9e 3a 70 bd
       0.014095691 0.036511697 -0.011275901 -0.05864965
0000a0 dd b8 28 3b c3 a6 e0 3c e3 8d 92 ba 96 14 9a 3c
       0.0025744953 0.027423268 -0.0011181202 0.018808644
0000b0 f0 87 51 bd 6a db 29 3d 17 73 8c 3c 95 e9 4b bc
       -0.05115503 0.041469015 0.017144723 -0.012445827
0000c0 06 d6 1d bd 26 d0 4e bd a9 ee 05 bc 1a 04 9d 3c
       -0.038534187 -0.050491475 -0.008174577 0.019166995
0000d0 28 41 24 3d d3 c1 f5 3b ad a8 ee bc 50 4a 0e bd
       0.0401012 0.0074999123 -0.029133165 -0.03473884
0000e0 4d 0d 10 3c 4e 32 9e bb 95 7c 07 bd 76 4f 37 bd
       0.008792234 -0.004827774 -0.033077795 -0.044753514
0000f0 1a 4c 9a 3c 5e 8b b2 bd 64 41 27 bd d9 04 1d bd
       0.018835116 -0.087179884 -0.040833846 -0.0383347
000100 d9 95 09 bd 20 f0 b8 bd 35 b9 bc bd d5 9c c7 bb
       -0.03359017 -0.09030175 -0.09215013 -0.006091694
000110 fd 90 51 bd 42 c5 d4 3c 90 7c 1b bd 07 f3 98 bd
       -0.051163662 0.025972966 -0.03796059 -0.07468229
000120 78 ab 40 bc cf ab d2 3b 31 e7 00 3d 3f a2 ba bc
       -0.011759631 0.0064291726 0.03147048 -0.022782443
000130 08 08 c8 3c 55 57 03 3d 15 18 ab 3d f3 58 b7 3c
       0.024417892 0.03206571 0.08354203 0.022381281
000140 78 71 90 bd 69 04 ad bc 17 a7 87 3d 85 33 bf bc
       -0.070528924 -0.021120267 0.06623667 -0.023339996
000150 fe e0 ca 3c 53 4d 7a 3d 5c 81 8e 3c f0 61 87 bd
       0.024765488 0.0611089 0.017395668 -0.06610477
000160 a5 d3 0c 3d bf 34 f2 3c 0f 78 79 bc 4d 5c a7 3b
       0.034381527 0.029566167 -0.015226378 0.0051074387
000170 27 ac b4 3d 78 23 37 3d 0b 19 1e 3d 8d 44 bb 3d
       0.08821898 0.04471156 0.0385981 0.091439344
000180 87 b5 e9 3c 4c a9 11 3c fa 5c 9f bd 28 8a 73 bd
       0.028528942 0.008890461 -0.07781406 -0.059457928
000190 46 8b a8 3d fe 7f ac 3d 67 af 0b 3d 6c 99 2e 3d
       0.08229689 0.0842285 0.034102824 0.042626783
0001a0 c2 7f ee bc 27 17 de 3d 98 30 a0 3d 89 20 97 bc
       -0.029113654 0.1084426 0.078217685 -0.018448131
0001b0 47 4f 8f 3b 93 f4 7e bd dc 21 a1 bc d5 f3 97 bd
       0.0043734643 -0.062244963 -0.019669466 -0.07419554
0001c0 30 c8 36 bc cb 6c 8a 3c 0d be 87 3d 17 8d 59 bd
       -0.011156127 0.01689758 0.06628046 -0.05311307
0001d0 fa 6a 86 3c 00 dc 71 3d 60 ef cd bc 71 ec c4 bc
       0.016408432 0.0590477 -0.025138557 -0.024038525
0001e0 46 9e e6 bd fb c1 65 bd 1e 07 9a bd 0e 74 06 3b
       -0.11260657 -0.056093197 -0.07520889 0.0020515951
0001f0 df b8 11 be 38 34 8b 3d ce c5 c5 3d c7 59 88 39
       -0.14230679 0.06797069 0.09656869 0.0002600683
000200 5d 77 8a bd 0c 32 62 bd 45 e6 82 3d 65 4f 3f bd
       -0.06761048 -0.05522351 0.06391577 -0.046706576
000210 94 c4 6f 3d 35 31 a9 3d 49 5c 91 3d 28 7a 01 3d
       0.05853708 0.082613386 0.0709768 0.031610638
000220 80 ff b2 3d 44 3c 2c 3e a9 6f 37 3e 5e e1 11 3d
       0.08740139 0.16819865 0.17913689 0.035615318
000230 17 0d 38 bc f3 63 96 3c eb 75 9a 3d cc 03 70 3d
       -0.01123359 0.018358206 0.07542022 0.05859737
000240 3c 12 4c bd fc 4f 41 bd 3c 38 3b 3d 79 74 e3 3d
       -0.049822077 -0.04719542 0.045707926 0.111062
000250 95 bf cc 3b dc 13 93 bd 0e 69 a5 bd 10 b6 da bc
       0.0062484243 -0.07181522 -0.08076678 -0.026698142
000260 9f e4 79 bb 9e 27 c0 bb 50 a4 12 bc ee bb b9 bc
       -0.0038130654 -0.0058640977 -0.008950308 -0.02267262
000270 94 5a 2e bd 06 12 69 bd e2 dc b3 bd f6 32 f0 bc
       -0.04256685 -0.056901954 -0.087823644 -0.029321175
000280 a6 76 5f bc ff 99 1f 3d b7 69 d9 bc c9 83 82 3d
       -0.013639128 0.03896522 -0.026539667 0.06372792
000290 34 6d e4 bc 6e c6 f0 3c 6d 9c 98 3d e8 ac a4 3d
       -0.027884103 0.029391494 0.07451711 0.08040792
0002a0 f6 47 c0 3d 27 de 81 bc fc c5 5d bc ed d7 ad bd
       0.093887255 -0.015853 -0.013535973 -0.0848845
0002b0 bf 6d 0f 3d b7 36 f3 3b 40 43 5d 3c e5 9c 43 3d
       0.03501677 0.007422294 0.013504803 0.04775705
0002c0 c8 56 b4 bb 7b aa 26 bd 5b 97 ce bc 90 fe 33 bc
       -0.005503509 -0.040689927 -0.025218656 -0.010985985
0002d0 49 eb 54 bb ef 29 41 bd 22 17 a2 bd c3 28 ae bd
       -0.0032488874 -0.04715913 -0.079145685 -0.085038684
0002e0 4a ea 40 bd c3 81 dd bc 46 a8 5c bd c9 8b 11 bd
       -0.047098435 -0.027039414 -0.053871416 -0.0355337
0002f0 52 2b 45 bd f8 39 c2 bc 74 82 54 bd 46 db 23 be
       -0.048137017 -0.023709282 -0.051882222 -0.16001615
000300 7b 84 64 bd fc e1 b9 bd bf 50 67 bd 00 d5 91 bd
       -0.055790406 -0.09076306 -0.05647349 -0.07120705
000310 a2 1b 8b bd 38 c7 70 bd 41 67 41 bd ce 4e 5d bd
       -0.0679238 -0.05878374 -0.04721761 -0.054030232
000320 02 bc b5 3c 0f 09 82 3d 25 7a fa bc 61 de 87 bd
       0.022184376 0.06349384 -0.030575821 -0.06634212
000330 fa 5b 0c bd 07 2a c0 3c f6 8d 50 bc 8a 19 e2 3c
       -0.034267403 0.02345754 -0.012729159 0.027600069
000340 f6 21 48 bd 03 bf b0 3c bc ac ab 3c ee ea 34 3d
       -0.048860513 0.021575456 0.02095639 0.04416936
000350 85 91 39 3d 65 d1 b8 3c e4 5b 9a bc cf 89 b1 3c
       0.045304794 0.022560785 -0.018842645 0.021672158
000360 5f 7b 77 bd ee 56 2e 3d 80 03 52 3d 49 84 1f bd
       -0.06042039 0.04256337 0.05127287 -0.038944516
000370 a5 ff 04 3d 6c c9 45 bd 07 1a 20 bd 58 ee 62 bd
       0.032470364 -0.048287794 -0.03908732 -0.055403084
000380 79 35 9a bc 1d c6 cc bc e1 b4 17 bc 11 96 59 3d
       -0.018824326 -0.024996812 -0.0092594335 0.05312163
000390 f1 8e 05 3d dc d8 80 3c c3 e9 76 bc 8f 0b 59 bc
       0.032607023 0.015728407 -0.015070382 -0.013247385
0003a0 2f bf 3d ba f2 56 8b bc 4b a8 9d bc a5 29 53 3d
       -0.00072382664 -0.017009232 -0.019245287 0.051553387
0003b0 98 24 5d 3d 43 a6 0d 3d f1 5a 99 3d 73 97 a6 3c
       0.053989977 0.034582388 0.07488049 0.020335888
0003c0 97 20 28 3d 70 2a 0a 3e 54 81 b2 3d 65 7f a6 bc
       0.041046705 0.13492751 0.08716074 -0.020324418
0003d0 0a 11 31 bd 7c e6 11 3c 6d 8a 59 bc d6 02 05 3d
       -0.04322914 0.008905049 -0.013277632 0.032473408
0003e0 bf 85 d7 bc 37 71 38 bd 3f 5f 37 3d 05 39 06 3c
       -0.026308892 -0.045029845 0.044768568 0.008192305
0003f0 d7 fb 23 bd f0 3f 93 3b 31 eb 00 3d 2f 5b 1c bd
       -0.040035095 0.004493706 0.031474296 -0.038172897

layer2.0.bias f4 [32]
000000 01 04 57 3c 2c 4a 3d 3d 1b 05 c9 3c 4c 1e f0 3c
       0.013123513 0.046213314 0.024538567 0.029311322
000010 3d 46 a1 bc a9 a6 7f bd 8b b6 08 3c 20 58 59 3b
       -0.019686813 -0.0624148 0.008344303 0.00331641
000020 42 72 0c 3c a4 ea 36 bd 4c a1 a5 bc f1 29 80 bd
       0.008572163 -0.044657364 -0.020218514 -0.06258
000030 fb ad 78 3d 1f 99 2a 3d 83 8b 78 3d f6 4a 74 bc
       0.060712796 0.041649934 0.060679924 -0.01491045
000040 e7 07 90 bb 8b 24 dd bb 5f 2d e9 bc 11 66 bf bc
       -0.0043954733 -0.006748741 -0.028464017 -0.023364099
000050 e3 10 ae bd c2 95 e4 bb 33 ed 9f bd 6f f9 1c bd
       -0.08499315 -0.0069758603 -0.07808914 -0.038323816
000060 a4 0f ce 3c 94 bf 7e bc e7 8b 1e 3d 9c 88 72 3d
       0.025153942 -0.0155486055 0.03870764 0.059212312
000070 33 9b 96 bd 43 ac 6a bc 1b 3c 15 3c d3 0d 50 3d
       -0.07353821 -0.014323297 0.009108569 0.050794434

layer2.1.weight f4 [32]
000000 3b d0 8d 3f 93 3d 88 3f db 73 94 3f 83 da 8d 3f
       1.1079172 1.0643791 1.1597856 1.108231
000010 65 96 93 3f a3 09 9d 3f 6a 95 8d 3f e5 81 9c 3f
       1.1530272 1.2268566 1.1061223 1.2227141
000020 31 7f 9d 3f fa 87 8e 3f 18 9e 9e 3f e8 f0 91 3f
       1.2304441 1.1135247 1.2391996 1.1401644
000030 be 96 8d 3f 68 5a 8e 3f 97 78 90 3f fe 43 8d 3f
       1.1061628 1.112134 1.1286801 1.1036375
000040 86 e4 84 3f a2 c2 8f 3f 60 a4 93 3f 21 98 88 3f
       1.038224 1.1231272 1.1534538 1.0671426
000050 48 01 99 3f 7e c3 9d 3f a7 29 8b 3f 31 47 92 3f
       1.1953516 1.2325284 1.0872086 1.1427976
000060 7c 62 9a 3f 52 cc 8c 3f f6 26 94 3f 0d 76 8c 3f
       1.2061305 1.0999854 1.157439 1.0973526
000070 db f2 91 3f 6c 2e 91 3f cd 61 8f 3f 86 ec 94 3f
       1.1402239 1.1342292 1.1201721 1.1634681

layer2.1.bias f4 [32]
000000 1e 5d c9 bd 85 0f 37 be 9a 4e 14 be 94 f0 4a be
       -0.09832214 -0.17877014 -0.14483109 -0.19818336
000010 5c 42 1a bd 59 2b 2d be da b2 80 be 21 f4 0b be
       -0.03766094 -0.16911067 -0.25136453 -0.13667347
000020 c4 98 70 be 0c d8 31 be 6f d8 69 be f5 c4 71 be
       -0.23495775 -0.17367572 -0.22836469 -0.2361029
000030 f6 ba 2e be 53 88 16 be 34 76 12 be cf cb 17 be
       -0.17063507 -0.14700441 -0.14302903 -0.1482384
000040 ea e0 75 be b8 91 42 bd 88 ed 8d be f3 25 9f bd
       -0.24011579 -0.04750225 -0.27720284 -0.0777091
000050 8c 7f 1f be 2c 85 d6 bd 4f 5e 4b be 03 95 66 be
       -0.15575999 -0.10474619 -0.19860195 -0.22517781
000060 69 0f 31 be c6 04 06 be b5 1d 57 be 97 53 05 be
       -0.17291035 -0.13087758 -0.21007426 -0.13020168
000070 5b 67 0d be 2d e0 02 be 62 79 d7 bd fb cd b7 bd
       -0.13808958 -0.12780829 -0.10521199 -0.089748345

layer2.1.running_mean f4 [32]
000000 c5 1f ca 3e dc f5 2e 3e e4 88 30 bc 6a f4 55 bd
       0.39477363 0.17085975 -0.010774825 -0.052235045
000010 8c ee 19 3f 5e 66 81 3d 84 04 b9 3d f7 c7 39 3d
       0.6012962 0.06318353 0.090340644 0.045356717
000020 90 9d 8f 3e 66 c4 1c 3e cd 44 9a be b6 2b 08 bf
       0.28049898 0.15309295 -0.30130616 -0.531917
000030 16 51 10 3f 6e 13 29 be d6 6a 40 3d bb e6 6c bd
       0.5637373 -0.16511318 0.046976887 -0.05783723
000040 81 ed 4d bc 31 a7 cf 3e 65 1a 1f bf 45 a0 dd 3d
       -0.012568832 0.40557244 -0.6214965 0.108215846
000050 dc 65 9c be 18 2d 36 3f bc 30 96 3e a5 1b 24 be
       -0.30546463 0.7116256 0.29334056 -0.1602617
000060 98 ad b5 3e a9 ed e6 3c 39 bb 64 3e 24 43 2d 3e
       0.35484004 0.028189497 0.22337045 0.16920143
000070 0f 82 e1 bd 5c 84 89 be a3 a0 82 be 41 a9 0c bd
       -0.11011135 -0.26858795 -0.2551318 -0.0343411

layer2.1.running_var f4 [32]
000000 64 94 5d 3f 08 23 6e 3f 4f 07 84 3f 96 67 82 3f
       0.8655455 0.93022203 1.031473 1.0187862
000010 d4 ad ab 3f da f2 81 3f 67 da 36 3f 11 ca 92 3f
       1.3412423 1.0152237 0.71427006 1.1467916
000020 75 2a 80 3f f0 d5 28 3f fe dd 87 3f 2c 14 2f 3f
       1.0012957 0.6595144 1.0614622 0.68390155
000030 16 4b a5 3f f7 c2 1e 3f 28 11 32 3f db e5 64 3f
       1.291354 0.6201624 0.6955743 0.8941323
000040 4f aa 60 3f 42 9e 87 3f 50 9e 60 3f e9 5f 6b 3f
       0.8775987 1.0595171 0.87741566 0.9194322
000050 de 01 3c 3f ac 18 a0 3f ac 14 96 3f 54 3e 54 3f
       0.7344035 1.2507529 1.1725059 0.82907605
000060 1c b2 9d 3f 07 4a 9f 3f 0a b6 52 3f c1 22 34 3f
       1.231998 1.2444466 0.8230902 0.7036553
000070 f9 65 13 3f eb 78 38 3f 9e 8a 5a 3f 87 ca 4c 3f
       0.5757747 0.72059506 0.85367763 0.7999653

fc.weight f4 [10, 1568]
000000 70 31 a6 bc c1 84 44 bd 0a e5 51 bd cc d9 e8 bc
       -0.020287246 -0.047978166 -0.05124382 -0.028424166
000010 cc 1b 8c bd 0d 72 b3 3c 99 e5 4b 3c 90 a0 0f bd
       -0.06841239 0.02190497 0.012444877 -0.035065234
000020 64 19 12 bd 31 1d db bc ac b0 c8 3d 41 b4 63 3d
       -0.035668746 -0.026747318 0.097993225 0.055591825
000030 87 73 5b 3b 35 6d 6c 3c 1d b0 bf bc ce 86 28 bc
       0.0033485608 0.014430334 -0.023399407 -0.010286046
000040 05 58 09 3d 95 07 5a bc c2 67 55 bc a6 4c 4d 3c
       0.033531208 -0.013307472 -0.013025226 0.012530481
000050 35 74 45 3c ad ef 02 bd 9b 22 b1 bb 69 10 40 3d
       0.012051632 -0.031966854 -0.0054057366 0.04689065
000060 24 13 00 bd bf 2c cf bd 50 4b db bd 31 e5 e0 bc
       -0.031268254 -0.101159565 -0.10707724 -0.027453037
000070 62 52 00 bd 86 09 81 bd 2f 94 02 3d 4b 18 19 bd
       -0.031328566 -0.063006446 0.0318796 -0.037376683
000080 98 1b 9a bd f8 b2 02 bd 02 8e d7 bc 75 24 d4 bc
       -0.07524794 -0.03190896 -0.026312832 -0.02589629
000090 fa 2d f2 bc 26 60 23 3d 32 99 32 bd f4 ef 4c bc
       -0.029562939 0.039886616 -0.04360313 -0.012508381
0000a0 21 03 e0 bc ff 53 b2 bc 3d 86 b0 bc 14 81 dd bc
       -0.027345242 -0.021768568 -0.021548385 -0.027039088
0000b0 ac 2c 67 bd c2 ec 99 3c 4f d3 a2 3c 98 ec a9 b9
       -0.056439087 0.018789653 0.01987615 -0.00032410468
0000c0 11 86 b3 bb 1a 24 7f 3a c7 5d 26 bc b0 e0 cc bc
       -0.0054786284 0.00097328576 -0.010154194 -0.025009483
0000d0 a7 98 bb 3c e0 c1 25 3d c9 af 9d bb 0b 01 ee ba
       0.022899939 0.040468097 -0.004812215 -0.001815827
0000e0 9c 7c 35 3d 38 58 66 b8 f0 11 68 3b e0 9a 6b 3d
       0.04430829 -5.4918433e-05 0.0035411082 0.057520747
0000f0 94 b6 13 3d 69 7c 70 3d a3 5e ad 3c a3 3a 0a bd
       0.036062792 0.058712397 0.02116329 -0.033747327
000100 f0 1d c6 bc 29 19 bc bc 09 34 79 bd 9a 4e b9 3c
       -0.024184197 -0.022961216 -0.06084064 0.022620488
000110 e0 d9 a4 3d f9 52 31 3d b8 68 d3 bc ce 24 82 3c
       0.08049369 0.04329202 -0.02580677 0.01588669
000120 00 89 84 3b db 01 40 be 38 1f 11 bb 9d 0c 0b 3d
       0.004044652 -0.18750708 -0.0022143852 0.033947576
000130 ab cb e1 3b ba 11 48 bd 11 12 71 3d 7b 58 4a 3d
       0.006890734 -0.04884503 0.05885512 0.049400788
000140 43 aa 46 bd 29 9a 8e bd ad 2f 1c bd ae 9b 07 bd
       -0.048502218 -0.069629975 -0.038131405 -0.033107452
000150 b7 a6 85 bb 49 54 35 3d 1e d0 f6 3c f6 bd b8 bd
       -0.004078712 0.044269834 0.030128535 -0.09020607
000160 db 33 5d bd 7d 2f a2 bd 43 d5 35 bd 48 5b 82 3d
       -0.05400453 -0.07919214 -0.044392835 0.06365067
000170 6b 41 9d 3d 50 fc cd bd df 27 a5 bd de c7 f2 bd
       0.07678493 -0.100578904 -0.080642454 -0.11854528
000180 77 8f 86 bd 84 13 7b 3c ca 59 2b 3c 9b 90 3d bc
       -0.065703325 0.015324477 0.010458419 -0.011570121
000190 a2 0b 0f bc 8d 46 d0 39 58 80 7c 3d 8b d4 d5 3c
       -0.008730801 0.00039725416 0.061645836 0.026102325
0001a0 02 43 89 bd b1 66 e2 3b 91 23 27 3d 38 02 93 3c
       -0.06702234 0.0069092144 0.040805403 0.017945394
0001b0 7b 78 3b 3d 23 06 a3 bb 5b 44 1a bd 7b 4f 04 bd
       0.045769196 -0.004975097 -0.037662845 -0.03230236
0001c0 78 a8 64 3d 02 05 85 3c 56 6c 4e 3c b3 25 96 bd
       0.055824727 0.01623774 0.0125990715 -0.07331409
0001d0 3b 70 59 bd 0c 3c 02 be 39 03 2d 3d 3f a1 2d bd
       -0.053085547 -0.12718219 0.0422394 -0.042390104
0001e0 3b 6f 4f bc fa e1 0c 3d c0 f8 5d 3d 25 1c 89 bd
       -0.012660797 0.034395196 0.054192305 -0.06694821
0001f0 4d 31 7f 3d d9 34 c5 3d 0b 36 0c bd c3 ad 79 bd
       0.062302876 0.096292205 -0.034231227 -0.060956728
000200 09 4f 82 3d 56 f1 8b 3c 13 b9 44 3d 7e b2 d4 3d
       0.06362731 0.017082851 0.048028063 0.10385607
000210 7e 0b 4c 3d e3 35 9b bc 02 2d d5 bd c6 7c 7e bd
       0.049815647 -0.018946594 -0.10408975 -0.062130712
000220 d8 db 59 3d 7a 4e 51 3d 8b bc 40 3c aa 36 d5 3c
       0.053188175 0.05110023 0.011763702 0.026027042
000230 28 39 f2 3c c9 43 31 3c 30 b9 d6 bd 93 6b 0f be
       0.02956827 0.010819384 -0.104845405 -0.1400588
000240 ae 1d 84 bd 45 9c 5a bd ef 1e 0e bd ce b9 2e b8
       -0.064509735 -0.053371686 -0.03469747 -4.1657877e-05
000250 b9 50 30 bd 76 c5 b6 3c 68 49 7f bd f8 97 4d bd
       -0.043045733 0.022310954 -0.062325865 -0.050193757
000260 c1 21 3b 3d dc f1 09 3d 0d 76 67 bd 09 6e 8f bc
       0.045686487 0.03367792 -0.056509066 -0.017508524
000270 70 55 25 ba 45 64 f0 bd 86 36 9a 3c 19 5b 02 bd
       -0.00063069817 -0.11737875 0.018824827 -0.03182516
000280 31 b8 83 bd 21 1b 33 bb 57 41 69 bc 44 5d 16 3c
       -0.06431616 -0.0027329403 -0.01423677 0.00917751
000290 18 4d 6d bd 44 06 0c 3d 74 e0 4d bc 89 17 85 bd
       -0.05793485 0.034185663 -0.012565721 -0.064986296
0002a0 b1 38 26 3d 4c 20 a2 3c e8 ac 31 ba 86 6f bf 3c
       0.04058141 0.019790791 -0.0006777779 0.023368608
0002b0 a6 4e a7 3d 5c 20 34 3c e4 65 23 3d a4 72 15 3d
       0.08169298 0.010994043 0.039892092 0.036486283
0002c0 76 ff d2 ba 4c 93 18 bd 3a b3 04 3d 5b ac f6 3c
       -0.0016097862 -0.03724985 0.032397486 0.030111482
0002d0 f9 e3 e0 bb 5f 30 33 3d f2 a6 98 3b b3 fb b9 3b
       -0.006863114 0.043747302 0.0046585733 0.005675757
0002e0 9e 84 76 bc 30 1b 81 bd 4c 4d 8b bc cd 31 46 bd
       -0.015046267 -0.06304014 -0.017004631 -0.048387337
0002f0 5e 73 02 bd bf 75 cd 3c 6b fb e2 3c da 79 aa 3d
       -0.031848304 0.02508056 0.027707776 0.083240226
000300 7a d6 10 be ba 0a 12 be ad 94 75 bd 5c ee 37 bc
       -0.14144316 -0.14261904 -0.05995624 -0.011226263
000310 84 ec 2a 3c 8b ac 59 bc 71 1a 09 3c ae 9f c3 3c
       0.010432366 -0.013285766 0.0083681205 0.023879852
000320 96 78 0c bd 78 77 9a 3c c1 62 9e 3c 59 d0 81 3c
       -0.034294687 0.018855795 0.019334199 0.015846418
000330 cc 7b bf b7 c8 1d eb 3b e7 9e ff 3c c4 14 38 bd
       -2.2826622e-05 0.007175181 0.0312037 -0.04494168
000340 94 b3 85 bd ab eb a5 3a 4f b6 13 3c a7 61 c2 bb
       -0.065283924 0.0012658736 0.009015634 -0.005932051
000350 ab 31 6d 3c fc a5 52 3d 30 26 83 3b e8 8a 45 bb
       0.014477174 0.051427826 0.004002355 -0.003014261
000360 19 42 b2 3c 33 02 bc 3c 88 b2 a2 bd 3a 55 84 3b
       0.021760033 0.022950267 -0.079442084 0.00403848
000370 09 73 30 3d ab 1f ae bb 89 60 39 bc 31 bb 82 bd
       0.043078456 -0.0053138337 -0.01131452 -0.0638336
000380 0e d7 99 bc 30 40 1d 3c 07 69 39 bd 57 40 f4 bd
       -0.018779304 0.009597823 -0.045266178 -0.11926334
000390 63 97 c1 bd 4f 95 84 bd 60 62 1b bd 37 47 a9 3c
       -0.09452703 -0.06473791 -0.037935615 0.02066384
0003a0 7f 42 10 3d d5 9f 82 3c 71 c8 60 3c fb 59 f2 3c
       0.035219666 0.015945354 0.013719664 0.029583922
0003b0 c6 d5 82 ba 9c 20 7a 3d 8a 76 2f 3d 07 77 9f 3b
       -0.0009981922 0.061066255 0.042837657 0.004866484
0003c0 c4 9c 37 3c 02 50 c3 39 17 fd 51 3d 80 32 8a 3a
       0.011206809 0.0003725291 0.051266756 0.0010543615
0003d0 60 97 1a bc aa e5 27 bd ba 39 a6 3c e4 d3 34 3c
       -0.009435505 -0.04099051 0.020291198 0.011036847
0003e0 dd 36 8a 3c ba b6 d9 3c 82 9c 64 bc 54 b3 08 bd
       0.016871864 0.026576389 -0.01395333 -0.033374146
0003f0 b2 e5 b0 b9 bd 0e 2a 3d 1a 30 3e 3c 77 b7 26 3d
       -0.00033740472 0.04151796 0.011608148 0.04070231

fc.bias f4 [10]
000000 8e 56 00 3d 56 57 39 3d 53 6a 98 3c 13 77 fc 3b
       0.031332545 0.045249306 0.018605387 0.0077046244
000010 40 5c 61 bc 6f dd d1 bc f2 ef 6b 3c 23 82 d8 3c
       -0.013754904 -0.025618283 0.014400469 0.026429242
000020 89 d1 2d 3b 1e f7 8b bb
       0.0026522598 -0.004271402
